results/easy_vae.pth (torch, 20699 bytes, 8 tensors)

encoder.0.weight f4 [64, 20]
00000000: f572 12be 9a36 a8bd 3d16 d5bd a698 2a3e
00000010: 351d 7ebd 50c8 33bd 717f 163d 9ee8 433e
00000020: 961f 71be 4c17 3d3e 3191 d63d fdef 943d
00000030: de5b 2a3d 22b0 c73d 6d61 dcbd acb0 89bc
00000040: ccbe 0a3d 2656 80bd 68f3 5f3d 518f 9bbd
00000050: f229 363e 9306 f83d dc8c c8bd 086e 5e3d
00000060: bb3f 1bbe f811 57be e968 57be 72d0 b03c
00000070: 4b7e ccbd 4648 093e 14f6 893d 2265 3b3d
00000080: 3f0c 83bd e8aa b1bd 0b3b d4bd 9974 923b
00000090: 48be 60bd 736f 0ebc 6c9e 97bd cd21 48be
000000a0: b619 083d 8096 5abe 2bc8 32be 6079 4a3e
000000b0: b5f6 203e 6dee 0d3e 9942 513e a148 ce3d
000000c0: 0bf3 fabd 8885 10bc b510 7f3d cda7 ae3c
000000d0: e920 1fbe da5e 4e3e 4e5e e4bd 424b 02bd
000000e0: a624 ca3c 0471 0b3e 624d 7c3d 0df0 db3d
000000f0: ae47 d6bd 33c1 17be 3460 1abe c719 a73d
00000100: 887a 17bd 3290 443c 9603 b3bc a78e 2ebc
00000110: 18c4 f33c 51e5 53be 8ae0 fa3d 5539 5bbd
00000120: 78a0 febd a61d 163e 4064 1b3d f2a1 5f3e
00000130: 912f 8cbd 6fbd 2e3e c486 81bd 7784 b0bd
00000140: c80c adbd de1b 9c3c 9c4c 1a3e bd9a 8f3d
00000150: 609f 483d 577d 24be 8cd7 19be cd41 47be
00000160: 88a2 d2bd 5521 363e 270c 85bd 8690 83bb
00000170: 2414 973d 9196 273e 0516 f3bd 0203 2fbe
00000180: fe46 1a3e 8f6a f73d aca4 2fbe 5fde 1fbd
00000190: ee93 303d 5df0 56be bb82 0bbd dd54 fe3d
000001a0: 1612 2a3e 683b 3d3d 79b5 0a3e 2736 1f3c
000001b0: c1ee 4e3e 940b d23d d621 38be a241 513e
000001c0: a3c7 2e3e 81d2 1cbd 117e 4c3e e3e1 3f3e
000001d0: 29af 4d3e ff21 ad3d 0265 d23c 8828 923d
000001e0: 84a6 afbd 02cb 29be 5be0 77bd 9293 e03d
000001f0: bf45 bc3d 0454 99bd 7b54 0c3c d6eb 42be
00000200: 8f68 db3d bb22 533e 6812 aa3c 37da 3ebe
00000210: dace e93d cfa9 573e 4ace dabc 57d3 43be
00000220: 2dd1 18be 923d 9bbd 80db d7bb 1220 b83c
00000230: 1ee2 283e 6b86 133e f2ea 46be 4c4b 4cbe
00000240: 7add 313e 4879 5fbe fe64 77bd 80be 0a3e
00000250: 3453 bc3d 8104 b93d 8032 383e b2a6 553e
00000260: 2bfc 5abe 5e98 e8bd 687f 523e 0ca9 b7bd
00000270: f407 de3a 3817 09be 97eb 593e 976d 5bbe
00000280: 3fef 573d 2203 0a3e 37a2 6cbe 0188 9d3d
00000290: 1eb1 44be 1ae5 56be 7314 dc3d c87c e9bd
000002a0: 7978 58be 4777 113d 863f 57bd b115 7abd
000002b0: f2f2 033c 8c89 533e eba1 0cbc 3946 733c
000002c0: 0cc9 dcbb fbee f13d 85cc 2f3e 1eb1 8cbd
000002d0: 6f7c 493e 0414 84bd 9fb6 18be 943c db3c
000002e0: dae4 eebd a37a 0e3e 7881 38bc 6fa6 fcbd
000002f0: d485 d6bb d22f 443d 007c 36be 1fa5 113e
00000300: 50b8 093e 3622 743c c0f8 9a3d f251 2fbe
00000310: d227 643e 1437 223d 5bfb f03d 42fe a93d
00000320: 9ead 09be fc25 233e 8b20 943d 5514 f4bd
00000330: 2bc2 f7bd abff 80bd 3644 b13d db1c eabd
00000340: 8411 8dbc 07a2 8c3d bd9a 5e3d 3933 fabd
00000350: 65b8 60bd 3d8d 553e 63fe 5abd 9586 d6bd
00000360: cec8 23bd e832 49be 61fc 973d 4587 f5bb
00000370: 0133 4f3e 6d39 313e 2fd3 a13d 7e39 273e
00000380: 7c3a 0f3c d13b 4f3e f00f ac3d a5e9 b23d
00000390: 585c 3b3e 6f1a f13d 7f2b 393e f78c 023e
000003a0: 4051 f23d 3256 9d3d 239a 02be 87e8 0fbe
000003b0: ff00 1ebe 5d5d 0dbe 7367 e63b 1d32 74bd
000003c0: 1d71 2dbe ebe6 033e d64f c5bd de8a 5dbe
000003d0: 680a 2fbe 6f14 543e a9d1 6d3d 4508 27be
000003e0: 4c9b 4cbe 2e50 88bd 29e8 023c e1de b9bc
000003f0: b541 19be 059c 0dbe ef40 abbd 74f2 3d3e
-0.14301665 -0.082135394 -0.10404632 0.16659793 -0.062039573 -0.043892205 0.03674263 0.19131705
-0.23547205 0.18465918 0.10476912 0.07272337 0.041591518 0.097503915 -0.1076077 -0.016807877
0.033873364 -0.062664315 0.05467549 -0.07595695 0.17789438 0.12110629 -0.09792492 0.054304153
-0.1516103 -0.21002948 -0.21036114 0.02158377 -0.09985026 0.13406476 0.06736389 0.045750745
-0.0639882 -0.08675176 -0.10362824 0.004469466 -0.054868966 -0.008693564 -0.074032634 -0.19544144
0.033227645 -0.21346474 -0.1745917 0.19772863 0.15719111 0.13860483 0.20435561 0.100724466
-0.12253388 -0.008820899 0.062271792 0.021320248 -0.15539898 0.2015337 -0.111508 -0.031810053
0.024675678 0.13617331 0.061597236 0.107391454 -0.104628906 -0.14819793 -0.15075761 0.081592135
-0.03698209 0.0119972695 -0.021852296 -0.010654128 0.02975659 -0.20692946 0.12249859 -0.053521473
-0.12432951 0.14659747 0.037937403 0.21839121 -0.0684501 0.1706445 -0.06324533 -0.08619016
-0.084497035 0.019056257 0.15068287 0.07011936 0.048980117 -0.16063438 -0.15023631 -0.19458695
-0.102849066 0.17786153 -0.064964585 -0.0040150313 0.073768884 0.1636603 -0.11869434 -0.17090991
0.15066144 0.12080871 -0.17152661 -0.03903043 0.043109827 -0.20990129 -0.03406022 0.1241853
0.16608462 0.046199232 0.13545789 0.009717501 0.20208265 0.102561146 -0.17981657 0.20435193
0.17068343 -0.03828669 0.19969966 0.18738513 0.2008635 0.0845375 0.02568293 0.07136637
-0.08576682 -0.16581348 -0.060516696 0.10965647 0.091929905 -0.07486728 0.008565064 -0.19035277
0.10713302 0.20618717 0.02076073 -0.1863793 0.11416407 0.2106087 -0.026709694 -0.19123589
-0.14923544 -0.07580103 -0.0065874457 0.02247623 0.16492507 0.14406745 -0.19425562 -0.19950598
0.17369643 -0.21823609 -0.060399048 0.13549232 0.09195557 0.09034062 0.17988014 0.2086437
-0.21385257 -0.11357187 0.20556414 -0.0896779 0.0016939626 -0.13387764 0.21281277 -0.21428524
0.052718397 0.13477758 -0.23108755 0.07691956 -0.1920819 -0.20985833 0.10746088 -0.11400753
-0.21139707 0.035514142 -0.052550815 -0.061055843 0.008053528 0.20657939 -0.008583526 0.014848285
-0.006737834 0.1181316 0.17167862 -0.0686972 0.19676374 -0.0644913 -0.14913414 0.026762284
-0.11664744 0.1391397 -0.0112613365 -0.12336432 -0.0065467153 0.047897168 -0.1782074 0.14223145
0.13449216 0.014900735 0.075669765 -0.17121103 0.22280815 0.039603308 0.11766692 0.08300449
-0.13445136 0.15932459 0.072327696 -0.119179405 -0.120975815 -0.06298765 0.08655588 -0.11431285
-0.017220266 0.06866842 0.05434679 -0.12216801 -0.054863352 0.2085466 -0.05346526 -0.10474888
-0.039986424 -0.19648325 0.07421184 -0.007492932 0.202343 0.17307062 0.07901608 0.16330525
0.008741971 0.20237662 0.08401477 0.087359704 0.18296945 0.1177262 0.18082999 0.12749086
0.118319035 0.07682456 -0.12754111 -0.14053546 -0.15430067 -0.13805147 0.007031375 -0.059618104
-0.1693768 0.12881057 -0.09634368 -0.21635005 -0.17093813 0.2071092 0.058061276 -0.16311748
-0.19981116 -0.06655918 0.007989922 -0.022689285 -0.14966471 -0.13829048 -0.083619945 0.1854952

encoder.0.bias f4 [64]
00000000: 40cf 72bd db1d 033e 6ed0 c73d 8544 eb3d
00000010: a14b d33d bf6a 193b f56a 2e3e 3e60 34be
00000020: 862e 91bd 5800 343e 152e 513e f558 51bc
00000030: 8c61 283e 43fc 283e 1c5c 9e3d 275c 46bd
00000040: e062 cebc 46fe 0dbd 043e cb3d 2792 573e
00000050: 3576 2abd e240 dbba e3e3 d1bd f53a 163e
00000060: f9e6 bf3d 49dd 363e 0052 14bc fb0a 1a3e
00000070: ac9b 20bd 6168 223e 598f 4f3e 3734 e43d
00000080: 14a1 e43d d831 1f3e c795 1a3e 87a0 3a3d
00000090: 14e9 60be c307 593e 3127 14be e13c b0bd
000000a0: d5d9 ccbb 8725 e0bc 391a d03d 5d88 36be
000000b0: a3ff 363c 9af0 16be b3ed 2fbe 3d49 3cbc
000000c0: 3b08 603e c8e3 39be 1f0c 08be e7c8 b23d
000000d0: 0e43 373c df38 50bd 9fd7 e1bd d9fe ab3d
000000e0: b441 23be 8c34 8abd 76b9 ea3d d3f4 40be
000000f0: 643b fa3d 2286 39be 8d1c 4e3e 29c7 5cbe
-0.05927968 0.12804358 0.09756552 0.114876784 0.103171594 0.0023409573 0.17032988 -0.17614838
-0.07088952 0.17578256 0.20427735 -0.012777557 0.16443461 0.1650248 0.07732412 -0.048427727
-0.025193632 -0.034666322 0.09923938 0.21051846 -0.041616637 -0.0016727711 -0.10248544 0.14670928
0.093702264 0.17857851 -0.009052753 0.15043251 -0.03921096 0.1586013 0.20269527 0.11142772
0.11163536 0.15546358 0.15096198 0.045563247 -0.21963912 0.21194367 -0.14468075 -0.08605362
-0.0062515535 -0.027361644 0.101612516 -0.17825456 0.011169347 -0.1474022 -0.17180519 -0.011492071
0.2187814 -0.18153298 -0.13285874 0.08729725 0.011185421 -0.050835487 -0.110274546 0.08398218
-0.15943033 -0.06748304 0.11461155 -0.18843393 0.12218359 -0.18117574 0.20128079 -0.21560349

encoder.2.weight f4 [16, 64]
00000000: 292c d9bc 4016 d5bb 0e81 f8bd 9498 69bc
00000010: 8efe 8c3d 64e1 053d 3426 2f3c ae2f d5bd
00000020: 281e 693d dc0a 2e3d a14a 213e eebf debd
00000030: abb4 203e d220 1cbd 6011 c23b 4ab6 903d
00000040: 2cc2 4ebd aeed d0bd 7efe 853d 153e 0abe
00000050: 8acd dc3d 959b c83d 1ac1 c3bc aa67 623d
00000060: fbf9 033e fe34 b9bd f88a e8bc aaa6 cabd
00000070: 32a1 fbbd 4416 a8bd f53a 1f3e f7bf 65bd
00000080: 23c5 68bd b748 99bc a0e3 4bbd 4cd8 89bd
00000090: 94a8 58bd 4b82 afbd ec6a 673d 34a2 6b3d
000000a0: 2297 c83d 6def 5cbd dad6 b93d 7896 023e
000000b0: 1642 193e 944c c4bd d09a 7d3d e9d3 033e
000000c0: b895 723b c724 c63d c895 e03d de9e b4bd
000000d0: 0e83 f43c f80a 8fbd c8b3 f73c b88e a7bd
000000e0: 888a d2bd 2042 a1bc fb43 c9bc bced 123d
000000f0: b2dd cb3d 3475 4ebb a3a9 d83d d07c f1bd
00000100: 7ea3 253d 405f 053d 3ec5 cd3d 7c93 26bd
00000110: 2566 ac3d 90e9 b73d 3392 263d 1a2a a4bd
00000120: 90fc 92bd c23f cb3d 8395 063d 082f d9bd
00000130: ee78 04bd a173 263d 56fa e13d cee8 64bd
00000140: 28dd 393d f05d 93bd 8276 f63d 22a5 e1bc
00000150: 20de 813c 9816 1b3d 9890 22bd 6b7b a93c
00000160: 999b de3c e01a 96bd ccb9 9cbd 62a1 9a3d
00000170: bca2 243d b88f 02bd 6053 60bb e588 e4bc
00000180: 1ed9 8e3a 4686 95bd 0084 38ba 32a8 e33d
00000190: dcc7 5fbd 87d7 223d a3e3 183e 6b08 ac3d
000001a0: be19 88bd b97d 71bd 4150 5e3c 2249 223e
000001b0: 9b47 f7bc 6cdc 9cbd 086f 393d 06f6 d5b9
000001c0: 2d94 97bd 098a f53d 5ebe 30bd 6c4f fb3d
000001d0: 69f4 49bc d296 273d 888c 8e3d 609e 023c
000001e0: 48ec c6bc 0026 0f3d 7126 81bd 32b7 873d
000001f0: f0d7 493c 7be5 21bd 1934 143e 1288 89bd
00000200: 3b35 293d 4cdd 20bd dc87 fcbd ac8d 61bd
00000210: 4364 f1bc 96e1 bb3d 1129 b7bb 185b c4bc
00000220: 130e a43d 409d 21bd 1139 c3bb 14e2 b03d
00000230: ca48 abbc f96d 873d 3023 77bc fabc f03d
00000240: f8b3 e83d e020 8bbb 6039 643d a7dc 503c
00000250: 084b 383d 2837 d4bd 9090 ef3d 6e60 a63c
00000260: 4f56 02bd e4c5 febd 2476 aabd 40f6 043d
00000270: 7476 ef3d a204 e6bd def1 fa3d 461c 13bd
00000280: 8eda 20bd d311 e43c 50d3 073c be1d ce3d
00000290: f859 be3d 0fc3 6b3d 9820 cbbd cb3f 48bd
000002a0: cc71 e7bd f69e f23c ca2c b2bd c888 51bd
000002b0: ce2d 1bbc 7493 07bd 201d 8c3d 287e b13d
000002c0: 2358 d53c 7cc8 a4bd 079c 39bc 20f4 833c
000002d0: e439 da3d 25f7 863c e600 f23d dec5 dabd
000002e0: 8cde f5bd 04fb c73d 77d8 c53b 8e45 eabd
000002f0: a091 e1bd 961b d13d b898 c03d 20b0 eb3c
00000300: 8cb4 27bd 0001 443c c82e d1bc 62af cfbd
00000310: bff3 f7bc 7079 dcbd 49d2 c7bc c0ff 0bbc
00000320: 66eb 603d 78c3 54bd 641a ccbb 4085 eb3c
00000330: 6dec d5bd 2e22 c93d 2690 fb3d f008 9ebd
00000340: 84b8 6cbd f0d7 83bc 6c78 b6bd 1ce6 ebbd
00000350: a88c f33d 49b5 d3bc 0cb9 f33d 3920 1d3b
00000360: f2b3 bdbc 26ad d6bd 5cfb 96bd 8c60 54bd
00000370: 3a78 f1bd de71 b73d e28b d4bd 1728 853d
00000380: 0ccd 173d 2033 85bc 820b abbd 0876 d63c
00000390: 405f 1e3c 849a cfbc 78c2 af3d 10da 2e3d
000003a0: 8824 8ebd d443 34bd a8b8 9d3c 9cf3 153d
000003b0: a661 c7bd fc71 85bd 5adf 993d d82c 873d
000003c0: 1bd6 d0bc b8f8 3b3d 1c41 ff3b 801d 993d
000003d0: 600f 46bd 4084 0cbd a257 da3d 6ce1 903d
000003e0: e600 d13d 29c9 193d 0633 84bd 72c6 8f3d
000003f0: 4c96 0dbd 7bce 8a3b 588c 503d 70e5 2a3c
-0.026510315 -0.0065028965 -0.1213399 -0.014257569 0.0688449 0.032685652 0.010690261 -0.10409485
0.056913525 0.042490825 0.15751125 -0.108764514 0.1569392 -0.038117237 0.0059224814 0.07066019
-0.050478145 -0.10201584 0.06542681 -0.13500245 0.10781391 0.097953 -0.023895789 0.055274643
0.12888329 -0.090433106 -0.028386578 -0.0989507 -0.12286605 -0.08207372 0.15549834 -0.056091275
-0.05682863 -0.018711431 -0.049777627 -0.067307085 -0.052895144 -0.08569773 0.056498453 0.057527736
0.09794451 -0.05393927 0.09074183 0.12752712 0.14966616 -0.095849186 0.06191522 0.12873806
0.003701551 0.096749835 0.109660685 -0.08819364 0.029847648 -0.06984514 0.030237094 -0.08181518
-0.10280329 -0.019684851 -0.024568548 0.035871252 0.099543944 -0.0031502964 0.10579231 -0.11791384
0.04043912 0.03256154 0.100473866 -0.040667996 0.0841792 0.089800954 0.04066677 -0.08015843
-0.07177079 0.0992427 0.03285743 -0.106046736 -0.03234189 0.040637616 0.11034076 -0.055886082
0.045376927 -0.071956515 0.12034322 -0.027544562 0.015852988 0.037863344 -0.039688677 0.020688733
0.027173804 -0.07329345 -0.076526254 0.075503126 0.040194258 -0.031875342 -0.0034229383 -0.027897308
0.0010898446 -0.07301001 -0.00070387125 0.11116065 -0.05463396 0.039756324 0.14930587 0.08400043
-0.06645535 -0.05895779 0.013568939 0.1584821 -0.030185511 -0.0765923 0.045271903 -0.00040809828
-0.07401309 0.11989219 -0.0431503 0.12271008 -0.012326338 0.040915318 0.06960398 0.00797233
-0.02428259 0.03494835 -0.0630616 0.066267386 0.01231955 -0.03952549 0.14472999 -0.067154065
0.04131053 -0.039273545 -0.123306006 -0.05506675 -0.029466754 0.091738865 -0.0055896123 -0.023969218
0.08010497 -0.039456606 -0.0059577306 0.08636871 -0.020908732 0.066127725 -0.015084073 0.117547944
0.11362451 -0.0042458624 0.05571878 0.01274792 0.04499343 -0.10362083 0.11697495 0.020309653
-0.03182059 -0.124400884 -0.08323315 0.032461405 0.11692515 -0.112313524 0.12253164 -0.035915636
-0.03927093 0.02784053 0.008290127 0.100642666 0.09294504 0.05755907 -0.09918326 -0.048888963
-0.11301002 0.029616814 -0.08699949 -0.051155835 -0.00947137 -0.033099607 0.06841493 0.086666405
0.026043003 -0.08046052 -0.011328704 0.016107619 0.10655573 0.01647527 0.118165776 -0.106822714
-0.12005338 0.09764674 0.0060377675 -0.11439048 -0.11014104 0.1021034 0.09404129 0.028770506
-0.040943667 0.011963129 -0.025535002 -0.101408735 -0.030267594 -0.1076535 -0.024392264 -0.008544862
0.054911993 -0.051944226 -0.006228732 0.028750062 -0.10445485 0.098209724 0.122833535 -0.077165484
-0.057793155 -0.016094178 -0.089096874 -0.11518499 0.118920624 -0.02584328 0.11900529 0.0023975505
-0.023157094 -0.10482244 -0.07372162 -0.051849887 -0.117905095 0.08957265 -0.10378243 0.06501787
0.037060782 -0.01625973 -0.08351804 0.026179329 0.009666264 -0.025342233 0.08582014 0.04268843
-0.069405615 -0.04401 0.01925309 0.036609277 -0.09735422 -0.065158814 0.07513304 0.0660035
-0.025492718 0.045891494 0.007789744 0.0747633 -0.048354506 -0.03430581 0.10661246 0.07074246
0.102052495 0.037545357 -0.064550444 0.07020272 -0.034567162 0.00423604 0.050915092 0.010430679

encoder.2.bias f4 [16]
00000000: e22a cfbc e23a 203e f699 033e e3bf 60bd
00000010: 1db9 613d 8593 8b3d f816 56bb 12cb cc3d
00000020: a16d 35bd a3fe 083e 78f8 bdbd c83d 573d
00000030: 0920 ff3d 3455 80bd 670d 0fbd 88c2 9e3c
-0.025289003 0.15647462 0.128517 -0.054870497 0.05510818 0.068152465 -0.00326675 0.0999967
-0.044294003 0.13378386 -0.09275907 0.052549154 0.12457282 -0.06266251 -0.03492489 0.01937987

decoder.0.weight f4 [64, 8]
00000000: 831d 86be b157 88be 7e55 893e 8eb6 93be
00000010: fe8c b23d 2c37 533e 745b 92be 2160 403d
00000020: cecf 48be 9619 6ebe 5ef0 66be 7d62 173d
00000030: 34e4 d839 331e 5a3e feee 95be eb9e 8ebe
00000040: e253 263e 30de 92be 34f3 30be 7ee1 4e3e
00000050: 69b0 30be 86ff efbd 58f8 9fbe a4d5 b3bb
00000060: ca8b 84be 3425 b3bd c464 5cbe 5c83 3f3e
00000070: 7e00 0cbe d61e b8bd b0e4 a33e 9437 fa3d
00000080: 395f d1bd 6371 2d3e 87a3 a13e a064 933e
00000090: 83b8 253e 21d0 333e 0193 b53d b117 753e
000000a0: e5f1 213e b500 72be 1b32 a3be faca b0be
000000b0: 20a9 813e 0568 f93d 9d9c a1be 4cdb d53d
000000c0: e328 c9be c980 4c3e 3a2b 4d3e 908e d03d
000000d0: 76c4 823e 500a 0fbd d0b4 803e abcb 1e3e
000000e0: d854 8f3d c827 e1bd bc7b 93be 8a82 24be
000000f0: ab05 fe3d 0c92 98bd eee0 9d3e f41e 89bd
00000100: 11b8 c3be 7c33 babd aa78 6fbe 2614 a93e
00000110: 6a7d 513c 7bc3 6bbe 48c3 61bc deb4 a03e
00000120: f70d fdbd 4b6a bb3c 5414 0dbe b5ac 903e
00000130: 2713 1f3d 0927 7d3e 1262 2a3e 86f7 3b3d
00000140: c2f0 973e d367 43bd b565 1bbe 4e7a ac3e
00000150: c1f2 85be b8c7 7f3d c40f 343d eab4 f33d
00000160: 11a9 99be baba 5ebe daff 3fbe 7707 12be
00000170: 2da1 943e 8060 a3be 1a47 0abe 4bf1 0cbd
00000180: f903 873d adbc a1be 5525 8dbc 6f47 623e
00000190: 481a ecbd 82df 483e da88 37bd 41e4 d3bd
000001a0: 8748 7bbe 478c e73d e323 7c3d 46f7 ab3d
000001b0: 2ea6 49bd 841e 54be 82a7 bf3e 1bcb 9f3e
000001c0: 7d70 a8bd d816 a2be cf88 c93d da05 80be
000001d0: 7d2e 043e d891 aa3e bf08 583d 72eb a93e
000001e0: d96b 853e b3c1 493e 5471 973e 7de2 8c3e
000001f0: f849 b4be fd9c 8abd 98cd 01be af8b 203e
00000200: c7ec 883d 9a00 7d3e a842 90be 009b 803d
00000210: 4cf9 0ebe cad8 6b3e 200b 033e a3f7 243d
00000220: c5f3 163e 6b11 293e 6720 89bd 782c ac3e
00000230: e719 39be 327f c43d e7aa be3d 7975 343e
00000240: 1035 ee3c 3f38 89bc 5077 76bc 3981 8fbe
00000250: 012b 80be ecf4 483d 2310 2e3d 60b8 84be
00000260: c228 0d3e 9ad1 8b3d b316 713e 1ac3 a2be
00000270: b58f c63d c47a a9be 6e5b 923e 7d4c c9bd
00000280: 5a3c 393c 04ee d5bd c759 59be ae86 16be
00000290: 2702 adbd 235e 973e f0d2 8d3e 0c76 1ebd
000002a0: 1675 7dbe 96c3 aa3b 1a9f a93e 1ea8 543e
000002b0: 966d 4cbc 4a36 f13d 26c3 1ebe 2e6d 5fbe
000002c0: 3dc6 123e 489c 2ebe 0276 053e c494 fb3d
000002d0: 73b9 98be 0d2c 8a3e 9ae0 6cbd 2506 22be
000002e0: ccca bf3d a49f 833e e571 c0bb 0deb 56bd
000002f0: d73d 723d 882c 27be ab35 9c3d a4c5 7b3e
00000300: 63ec a8be d236 ac3e 3419 04bc c68d 313e
00000310: df6b 97bb 9341 193e fafc b23c 79fa ad3e
00000320: 82e1 0d3e 447c 193e 1709 273d 3ae1 08be
00000330: 4014 083d 7529 dfbd 16c4 05be 8b6c a3be
00000340: 3fe5 403e 710f 563e 958e bf3d 95ed 87be
00000350: 30ed 0a3e c093 d43d ec37 ad3e 94ca 653e
00000360: e6b8 353e 03f4 5ebd 2ed9 97be 5e35 7c3e
00000370: ac8d 85be 607b ab3c b5fc 1a3e 8d2f 8dbd
00000380: 5843 8bbe 00a2 563d 3559 2c3e df18 3bbe
00000390: bc85 9fbe d7f1 50be 76f3 b83d 2616 54be
000003a0: b256 063e 4e4c 463e 3f0e a03e b22c 60be
000003b0: 42c8 353d b3a1 93bd b31f 9d3e 8375 9cbd
000003c0: 354f 1c3d 807d dabc f8c5 bd3d debc 0cbe
000003d0: 79df 78be 305c 5fbe b15c 6dbe 07c4 883e
000003e0: fc96 7d3e 95a5 993e fe12 b03e fe7d 9c3e
000003f0: 445b 08be f789 a33d 7e40 24bd da09 28be
-0.2619439 -0.26629403 0.26823038 -0.28850216 0.087182984 0.20626515 -0.28585398 0.046966676
-0.19610521 -0.23251948 -0.2255263 0.03695916 0.00041368755 0.21300583 -0.292839 -0.2785562
0.16242936 -0.2868514 -0.17280275 0.20203206 -0.17254795 -0.11718659 -0.3124416 -0.0054881144
-0.258879 -0.0874733 -0.21522814 0.18702453 -0.13672063 -0.089902565 0.32010412 0.12217632
-0.102232404 0.16937785 0.31570074 0.28787708 0.16183667 0.17559864 0.088659294 0.23934819
0.15814932 -0.23633082 -0.31874165 -0.3452986 0.25324345 0.12178043 -0.315648 0.10442218
-0.39289007 0.19971003 0.20036021 0.10183442 0.25540513 -0.034921944 0.2513795 0.1550738
0.069986045 -0.10993916 -0.2880534 -0.16065422 0.12403425 -0.07449731 0.3083567 -0.06695357
-0.3822637 -0.09091851 -0.23385873 0.33023185 0.012786249 -0.23023789 -0.013779469 0.3138799
-0.12356179 0.022877833 -0.13777286 0.28256765 0.038836624 0.24721922 0.16638973 0.045890354
0.2967587 -0.047706436 -0.15175517 0.3368706 -0.2616177 0.062446326 0.043960348 0.11899741
-0.300118 -0.21750918 -0.18749943 -0.1426066 0.29029217 -0.3190956 -0.13503686 -0.034409802
0.065925546 -0.3158926 -0.017229715 0.22097562 -0.1152845 0.19616511 -0.044808246 -0.1034627
-0.24539386 0.11306053 0.06155766 0.08396773 -0.049230747 -0.20714766 0.37432486 0.31209645
-0.082245804 -0.31658053 0.09840547 -0.25004464 0.12908359 0.33314395 0.052742716 0.33187443
0.26058844 0.19702797 0.2957865 0.27516547 -0.35212684 -0.067682244 -0.12676084 0.15678285
0.06685787 0.2470726 -0.28175855 0.06279564 -0.13962287 0.23031917 0.12797213 0.040275227
0.14741428 0.1651055 -0.066956334 0.33627677 -0.18076287 0.09594573 0.09309941 0.17622937
0.029078037 -0.016750453 -0.015043095 -0.28028277 -0.2503281 0.0490617 0.042495858 -0.25921917
0.13785079 0.06827088 0.23543815 -0.31789476 0.09695379 -0.33101475 0.2858538 -0.09829042
0.011305893 -0.104457885 -0.21225654 -0.14699814 -0.08447676 0.29564008 0.27699995 -0.038686797
-0.24751696 0.005211304 0.33129197 0.20767257 -0.012477299 0.11777933 -0.1550413 -0.21818992
0.14333434 -0.17051804 0.13033298 0.12284234 -0.29828987 0.26986733 -0.057831384 -0.15822656
0.09364852 0.25707734 -0.0058729523 -0.052470256 0.059141006 -0.16325581 0.07627424 0.24587113
-0.3299285 0.33635575 -0.0080626495 0.17339239 -0.0046210135 0.14966421 0.021849144 0.33980158
0.13855556 0.1498881 0.040780153 -0.13367167 0.033222437 -0.10896579 -0.13063082 -0.3191875
0.1883745 0.20904328 0.09353367 -0.26548448 0.13567042 0.103797436 0.33831728 0.22440559
0.17746314 -0.054431926 -0.29657882 0.24629733 -0.2608465 0.020932853 0.15135463 -0.06893835
-0.27199817 0.05240059 0.16830905 -0.18271206 -0.3115672 -0.20404755 0.090308115 -0.20711574
0.13119009 0.19365045 0.3126087 -0.2189205 0.044380434 -0.07208576 0.30688247 -0.07639601
0.038161475 -0.026671171 0.09266275 -0.13743922 -0.24303998 -0.2181251 -0.2317989 0.26712057
0.24764627 0.30009142 0.3438949 0.30564874 -0.13316065 0.07985299 -0.040100567 -0.16410008

decoder.0.bias f4 [64]
00000000: f550 95be 1e0c 563e e5fe c8bd abe0 10be
00000010: d0e4 703e bfca c93d 3301 61be d22f 703d
00000020: 5045 30bd 8b2d 14be 8f40 97be 78b4 63be
00000030: 76b9 033e 7316 2e3b 7089 0cbe 617b 3d3e
00000040: e297 ddbc 082c 48be ed92 c63c c826 e03d
00000050: e7b2 493e 1ead 49be 6c23 14be e7c6 503e
00000060: b261 9c3e 354d 1f3d fca6 693e 4216 a53c
00000070: 9149 edbd 9a91 93bc 3f9d a1be bb07 ec3d
00000080: d15e 53be b6df 313d e8d4 ff3c fff6 423e
00000090: 7038 75be 47f5 6bbe 7a62 113e 4ee9 17bc
000000a0: e0ca 4cbe f692 e63d 54c1 7d3e 0411 a53e
000000b0: 4c3a adbe f1eb bfbd 5a13 2b3e 8c2f 29be
000000c0: 726d aabe 02f4 893e f355 f8bd 60e1 903e
000000d0: ff8d f3bd fa88 993e ce46 933e ad27 8c3c
000000e0: cd7d 67be 3cd4 08be 218b c23d 2421 0abe
000000f0: ed82 98be d6c3 bebe 8be0 ac3d 3a3e e0bd
-0.29163328 0.2090306 -0.09814242 -0.14148204 0.23524785 0.09853124 -0.21973114 0.058639355
-0.04303485 -0.14470498 -0.29541442 -0.22236812 0.12863716 0.0026563674 -0.13724303 0.18504097
-0.027049962 -0.19548047 0.024239982 0.10944897 0.19697152 -0.19694945 -0.14466637 0.20388375
0.30543286 0.03889199 0.22817606 0.020152215 -0.11586297 -0.018013764 -0.31565282 0.11524912
-0.20641638 0.043426238 0.031229451 0.19039534 -0.2394731 -0.23042785 0.14197722 -0.009271933
-0.19999266 0.11258499 0.2478078 0.32239544 -0.3383354 -0.09371174 0.16706601 -0.16522044
-0.33286625 0.26943976 -0.121257685 0.28296947 -0.11892318 0.29987317 0.28764957 0.017108763
-0.22606583 -0.13362211 0.09499193 -0.13489205 -0.29787388 -0.37258786 0.08441266 -0.10949369

decoder.2.weight f4 [20, 64]
00000000: 68c6 863c 64e9 9f3d 88a9 263d 0835 1dbd
00000010: 3068 363d 86f3 d4bd 34d9 8d3d b404 2d3d
00000020: 687a a43d 48bb ef3d 4ca8 26bd ac8e 8e3d
00000030: d05c 65bc 48c4 74bd 9667 b4bd d029 a83d
00000040: 4c1f fabd 20e6 4e3c 20bb c23c 1099 483c
00000050: 988f dfbc a064 e6bd 2062 36bc 00ff 303b
00000060: 9cf1 c73d 4600 babd fcb6 633d b805 4dbd
00000070: decb fbbd b03f 06bd 70ac abbc 2c35 3a3d
00000080: 5ae3 883d bcda 68bd e241 e93d 2060 23bd
00000090: 322b f2bd 0899 6abd f005 bb3c 7687 e6bd
000000a0: b47a c73d e081 703d fc4d dbbd d0a3 dabd
000000b0: 24a7 693d 12e6 98bd 6a15 943d 88da 24bd
000000c0: 3c88 c33d 7697 c93d e8cc c33d 16d7 fb3d
000000d0: 80e8 ebbd 34ee 6f3d 540e 5fbd 58be fabc
000000e0: a29c 823d 88ff 89bd d80f c2bc eae2 d13d
000000f0: e028 41bd 30f3 e53c 5010 ea3c 80f9 a4bb
00000100: b62a ef3d d4b8 b9bd dcd5 b13d de3f ccbd
00000110: b436 ff3d f08f 85bd f425 813d 2827 5dbd
00000120: 0432 cdbd 9041 d1bc 50c9 70bc e02b 8b3d
00000130: 287a 1f3d 7447 3dbd ca6d c1bd 20c5 69bd
00000140: 5cdb 75bd 509f c9bc ce0c a13d 8031 b93c
00000150: fa0c bb3d cade 93bd d0b1 e43c c446 bfbd
00000160: 002a 22bc 6484 63bd 18cd 67bd e271 de3d
00000170: bee1 e93d e0a3 21bd c883 c83d 2480 2fbd
00000180: e084 643d 141f 2d3d 808b 0e3c 884d e73c
00000190: 548f bc3d 6877 e3bc 48be 783d b694 bc3d
000001a0: 787d 68bd f89a d3bd bc47 c73d b696 fabd
000001b0: ee52 bfbd 18f3 d53c e055 e73d 3846 6b3d
000001c0: 7aa5 e63d c617 863d 72eb af3d c04b 313b
000001d0: 309d 0dbd 6a08 83bd 08ae d03d 4410 8e3d
000001e0: d89b 673d 6642 f2bd e054 d93d 9c26 e73d
000001f0: 8cfc 07bd 7a4e e73d 9020 2a3c 7a1f c33d
00000200: 2012 df3c d060 06bd 7abe 9cbd c408 e2bd
00000210: 6e94 c7bd e412 d3bd 0828 9e3d 9cd3 9cbd
00000220: 8052 5c3b f2f6 ce3d 4497 c33d 7099 2ebd
00000230: 967a a9bd dab0 d4bd 78c4 68bd 506e a7bc
00000240: dcc4 ddbd b868 3dbd a22f f7bd 7efa c2bd
00000250: 667a ba3d b8e5 efbc be23 a8bd 10fb edbc
00000260: 308f 61bc 6af0 d63d 2818 903d 6828 43bd
00000270: 1241 d03d e4a6 cc3d f0bf 5bbc 76e7 cdbd
00000280: 6836 ec3c d8bb 43bd 1aa5 b1bd e0e3 f1bc
00000290: c69a ca3d f85b 3c3d 4220 bd3d 2c93 293d
000002a0: 00ab 0e3d 6881 8e3d d43e f63d c4e3 4fbd
000002b0: b0e3 1d3c 8067 0fbc 5c1f a63d 801e 92bd
000002c0: 20b8 2e3d 1815 353d c493 4b3d 5857 723d
000002d0: 9452 14bd 80be 24bb 1aff d83d 2ab9 87bd
000002e0: 58a3 483d 3c99 5dbd a435 a13d 74bb 87bd
000002f0: 3cb0 1b3d a4a0 55bd ca17 b0bd 08be 553d
00000300: 8650 963d 90da 373c f221 a43d 289b 823d
00000310: 90e5 10bd e242 9d3d 0cc3 10bd a0db 6f3c
00000320: 6641 fdbd 3e53 d43d 5436 14bd b0c7 b9bd
00000330: 50a3 8cbd c64a dbbd 2228 953d 545d 3fbd
00000340: 3cf2 223d a88c cf3d d8c6 3cbd 94f3 f7bd
00000350: 34d4 523d ec89 773d 88df 92bd c0fc d13c
00000360: c44a b43d 4828 cc3c 94b6 733d 1a3a fe3d
00000370: f8f5 b93d 6084 89bc ccc6 eebd ee4d a03d
00000380: f626 ce3d 64f3 df3d f0ef f2bd d8ba 54bd
00000390: acbc 593d 6e5a d73d fa57 c43d 38ef 40bd
000003a0: 00a3 543c 206f 3dbc eccd 24bd 666d cbbd
000003b0: 689f d6bd b057 7d3c 04f7 fdbd 3c2e b1bd
000003c0: 005c 783a f602 b23d 300d f93c 7273 9e3d
000003d0: e04d 443d 1214 cd3d 98f7 883c 8af4 8bbd
000003e0: f498 8a3d 4ecc f93d 8c86 f4bd 56ca fb3d
000003f0: a86a 38bd 428a bc3d 9eeb f8bd 8002 9b3c
0.01645203 0.078081876 0.04068902 -0.038380653 0.044532955 -0.10398011 0.06926194 0.042240813
0.0803116 0.11705643 -0.040687844 0.06960806 -0.013999179 -0.0597575 -0.0880882 0.082111
-0.12213001 0.012628108 0.023770869 0.012243524 -0.02729015 -0.112496614 -0.011131793 0.002700746
0.0976288 -0.090820834 0.05559443 -0.050054282 -0.12294744 -0.03277558 -0.020956248 0.045460865
0.06683989 -0.056849226 0.11389519 -0.039886594 -0.11824645 -0.05727485 0.02282998 -0.11256306
0.09740201 0.05871761 -0.10708234 -0.10675776 0.057044163 -0.074657574 0.07230647 -0.04024747
0.09547469 0.09843342 0.09560567 0.12296884 -0.11518955 0.058576778 -0.054457024 -0.030608341
0.063775316 -0.06738192 -0.023689196 0.102483585 -0.047158122 0.028070062 0.028572232 -0.0050346255
0.11678068 -0.09068456 0.086833686 -0.09973119 0.12461606 -0.065215945 0.06306067 -0.05399242
-0.10019305 -0.025543958 -0.014696434 0.06795478 0.038934857 -0.04621072 -0.09444769 -0.05707276
-0.06002365 -0.024612099 0.078637704 0.022606611 0.091333345 -0.07220228 0.027916819 -0.09339669
-0.009897709 -0.05554618 -0.056592077 0.10861565 0.1142001 -0.039462924 0.0979076 -0.042846814
0.055790782 0.042265967 0.008700252 0.028235212 0.09207025 -0.027766898 0.06072834 0.09208052
-0.05676028 -0.10332292 0.09730479 -0.12235777 -0.093419895 0.026116893 0.11295676 0.057440013
0.11262031 0.06547503 0.085898295 0.0027053207 -0.034573734 -0.06398089 0.10189444 0.06936696
0.05654511 -0.11829071 0.10611892 0.11286661 -0.03319983 0.11294265 0.01038374 0.09527488
0.027230322 -0.03280717 -0.07653518 -0.11036828 -0.097451076 -0.103063375 0.07722479 -0.07657549
0.003361851 0.10105695 0.09550336 -0.0426268 -0.082753345 -0.10385294 -0.056827992 -0.020438343
-0.108285636 -0.046242446 -0.12069632 -0.09520434 0.09105377 -0.029284343 -0.08209942 -0.02905038
-0.013767049 0.10495074 0.070358574 -0.047645956 0.10168661 0.09992769 -0.013412461 -0.10053913
0.028834537 -0.047786564 -0.08674069 -0.029527605 0.09892802 0.045986146 0.09234668 0.04140012
0.034831047 0.06958276 0.12023702 -0.050754324 0.009636804 -0.008752704 0.0811145 -0.07134724
0.042656064 0.04420957 0.049701467 0.05916533 -0.036211565 -0.002513796 0.10595532 -0.06627114
0.0489839 -0.054101214 0.07871559 -0.06627551 0.038009867 -0.052155152 -0.085982874 0.05218318
0.073395774 0.011221543 0.08014287 0.0637725 -0.035375178 0.076787725 -0.03534226 0.014639765
-0.123659894 0.1036744 -0.036184624 -0.090712905 -0.06867087 -0.10707621 0.07283045 -0.046719864
0.039781794 0.1013425 -0.04608807 -0.12107006 0.051471904 0.060434267 -0.071715415 0.025633216
0.08803323 0.024921551 0.059500292 0.12413426 0.09080118 -0.016786754 -0.11659011 0.07827364
0.10066025 0.10935095 -0.11862171 -0.051936 0.053158447 0.10515295 0.09587093 -0.047103137
0.012978315 -0.011562139 -0.040235445 -0.099329755 -0.10479623 0.015462801 -0.1240063 -0.08651397
0.0009474158 0.08691971 0.030401796 0.07736863 0.04792583 0.10013594 0.016719624 -0.068337515
0.06767455 0.12197171 -0.11939725 0.12294452 -0.04502359 0.09206058 -0.121543154 0.01892209

decoder.2.bias f4 [20]
00000000: fb2d 1cbe 704b cebd 80d1 c43d 88c5 87bc
00000010: 2438 163e baf0 6abd afda 90bd 691a 2c3d
00000020: 42fb 0ebd 1f54 473d eaa8 8d3d d48a a13c
00000030: 3120 01be 4df6 5cbd 870e e8bd 3c29 adbd
00000040: 1742 3abd 3420 2b3e db28 03be 3724 e4bc
-0.15251915 -0.10072982 0.096102715 -0.016573682 0.14669853 -0.05735848 -0.070729606 0.042017374
-0.034907587 0.04866421 0.069169834 0.019719519 -0.12609936 -0.05394583 -0.11330896 -0.084551305
-0.045473184 0.16711503 -0.12808554 -0.0278493
